Model summaries for a given models

Model 1 : final_dnn
_________________________________________________________________
Layer (type)                 Output Shape              Param #   
=================================================================
batch_normalization_1 (Batch (None, 713)               2852      
_________________________________________________________________
dense_1 (Dense)              (None, 512)               365568    
_________________________________________________________________
activation_1 (Activation)    (None, 512)               0         
_________________________________________________________________
batch_normalization_2 (Batch (None, 512)               2048      
_________________________________________________________________
dense_2 (Dense)              (None, 512)               262656    
_________________________________________________________________
activation_2 (Activation)    (None, 512)               0         
_________________________________________________________________
batch_normalization_3 (Batch (None, 512)               2048      
_________________________________________________________________
dense_3 (Dense)              (None, 512)               262656    
_________________________________________________________________
activation_3 (Activation)    (None, 512)               0         
_________________________________________________________________
batch_normalization_4 (Batch (None, 512)               2048      
_________________________________________________________________
dense_4 (Dense)              (None, 2)                 1026      
_________________________________________________________________
batch_normalization_5 (Batch (None, 2)                 8         
_________________________________________________________________
activation_4 (Activation)    (None, 2)                 0         
=================================================================
Total params: 900,910.0
Trainable params: 896,408.0
Non-trainable params: 4,502.0
_________________________________________________________________
_________________________________________________________________



Model 2 : final_lstm50
_________________________________________________________________
Layer (type)                 Output Shape              Param #   
=================================================================
lstm_1 (LSTM)                (None, 50)                14800     
_________________________________________________________________
batch_normalization_1 (Batch (None, 50)                200       
_________________________________________________________________
dense_1 (Dense)              (None, 128)               6528      
_________________________________________________________________
batch_normalization_2 (Batch (None, 128)               512       
_________________________________________________________________
dense_2 (Dense)              (None, 64)                8256      
_________________________________________________________________
batch_normalization_3 (Batch (None, 64)                256       
_________________________________________________________________
dense_3 (Dense)              (None, 2)                 130       
=================================================================
Total params: 30,682.0
Trainable params: 30,198
Non-trainable params: 484.0
_________________________________________________________________
_________________________________________________________________



Model 3 : final_lstm150
_________________________________________________________________
Layer (type)                 Output Shape              Param #   
=================================================================
lstm_1 (LSTM)                (None, 150)               104400    
_________________________________________________________________
batch_normalization_1 (Batch (None, 150)               600       
_________________________________________________________________
dense_1 (Dense)              (None, 256)               38656     
_________________________________________________________________
batch_normalization_2 (Batch (None, 256)               1024      
_________________________________________________________________
dense_2 (Dense)              (None, 128)               32896     
_________________________________________________________________
batch_normalization_3 (Batch (None, 128)               512       
_________________________________________________________________
dense_3 (Dense)              (None, 64)                8256      
_________________________________________________________________
batch_normalization_4 (Batch (None, 64)                256       
_________________________________________________________________
dense_4 (Dense)              (None, 2)                 130       
=================================================================
Total params: 186,730.0
Trainable params: 185,534
Non-trainable params: 1,196.0
_________________________________________________________________
_________________________________________________________________



Model 4 : final_blstm50
_________________________________________________________________
Layer (type)                 Output Shape              Param #   
=================================================================
bidirectional_1 (Bidirection (None, 100)               29600     
_________________________________________________________________
dense_1 (Dense)              (None, 128)               12928     
_________________________________________________________________
activation_1 (Activation)    (None, 128)               0         
_________________________________________________________________
dense_2 (Dense)              (None, 64)                8256      
_________________________________________________________________
activation_2 (Activation)    (None, 64)                0         
_________________________________________________________________
dense_3 (Dense)              (None, 2)                 130       
_________________________________________________________________
activation_3 (Activation)    (None, 2)                 0         
=================================================================
Total params: 50,914.0
Trainable params: 50,914.0
Non-trainable params: 0.0
_________________________________________________________________
_________________________________________________________________



Model 5 : final_blstm150
_________________________________________________________________
Layer (type)                 Output Shape              Param #   
=================================================================
bidirectional_1 (Bidirection (None, 300)               208800    
_________________________________________________________________
dense_1 (Dense)              (None, 256)               77056     
_________________________________________________________________
activation_1 (Activation)    (None, 256)               0         
_________________________________________________________________
dense_2 (Dense)              (None, 128)               32896     
_________________________________________________________________
activation_2 (Activation)    (None, 128)               0         
_________________________________________________________________
dense_3 (Dense)              (None, 64)                8256      
_________________________________________________________________
activation_3 (Activation)    (None, 64)                0         
_________________________________________________________________
dense_4 (Dense)              (None, 2)                 130       
_________________________________________________________________
activation_4 (Activation)    (None, 2)                 0         
=================================================================
Total params: 327,138.0
Trainable params: 327,138.0
Non-trainable params: 0.0
_________________________________________________________________
